extension/control_extension/public/models/default_onxx/model.onnx (onnx, 503450 bytes, 5 tensors)

classifier.bias f4 [5]
-0.05977836 -0.07440802 0.027268905 0.08310684 -0.04927917
00000000: 27da 74bd 3b63 98bd 0a63 df3c eb33 aa3d
00000010: f4d8 49bd

72 f4 [1, 512, 99]
0.032548197 -0.07545255 -0.041187394 0.07020367 0.08769523 0.06705185 0.05289775 -0.00084192544
-0.034809705 -0.07880345 0.014744263 0.07350564 -0.01649163 0.06532121 0.08758906 0.06216406
-0.00607963 -0.05374992 0.071318105 -0.024717145 0.08670953 0.029469023 0.06280365 -0.08208187
-0.014159076 0.018657576 0.03259691 0.0107693095 0.015040777 -0.0030443405 0.055236332 -0.02877164
0.056034055 -0.034016617 -0.030076697 0.018132322 0.026291119 -0.04184518 -0.07102674 -0.0235931
-0.08811549 -0.048572324 -0.041553263 -0.006799414 -0.05397753 0.027612802 0.054472864 0.0056874114
0.026093114 -0.001914078 0.07054187 -0.059226763 -0.0013025273 -0.078602836 -0.066864386 0.07698274
-0.050984766 0.04007552 0.053245556 -0.00032072698 -0.065189466 -0.08149601 0.05775153 -0.041719574
0.02823899 0.029192014 -0.0056576245 0.07683729 -0.04202419 0.039147887 -0.0759991 -0.0029950393
-0.012379962 0.0075211786 -0.016358571 -0.012588915 0.074046165 0.0039276015 0.077646844 0.026926156
0.037740543 0.013903729 -0.04664278 0.039017107 0.030989008 0.040327705 -0.009708189 0.017760366
0.059765767 -0.042753603 -0.046584994 -0.040535226 0.06884344 0.069921136 0.047821637 -0.034743384
-0.057393163 0.018797379 -0.004743617 -0.040174935 -0.022304734 -0.06690682 0.03945691 0.044921543
-0.0012341756 -0.07059951 0.07066214 0.041506436 -0.014465725 -0.06070887 0.056176987 -0.087014794
0.079828784 -0.030660663 0.07392632 -0.047593422 0.015906474 0.08795883 0.03227809 -0.0022579646
-0.067887716 0.063065834 -0.064413406 0.08022073 0.07707694 0.010997346 -0.005823493 -0.03724087
0.05369226 0.01446561 0.04742205 -0.007629264 -0.07193726 0.0039571254 -0.06000375 0.034647606
0.02496714 0.044625018 -0.077454664 0.024568062 0.059926875 0.025700368 -0.029792322 -0.013073404
-0.07388456 0.03488362 0.03933657 0.006648212 0.08478683 0.0046467218 0.01805553 0.045241565
-0.012170903 -0.011873367 -0.028008109 -0.029929351 -0.039460346 -0.024889495 -0.06709577 0.084205605
0.058475852 -0.022404063 -0.015110119 0.062674776 -0.02464852 0.08187865 0.08061532 0.051242147
-0.07969783 -0.0715498 0.058219958 -0.07696873 -0.04490203 -0.036664788 -0.070770435 0.04178278
-0.054311924 -0.054951333 0.028464938 0.038737904 -0.009188307 -0.023316815 -0.06498167 -0.08555154
-0.05631 0.058315072 -0.0032069853 -0.051721442 0.049667753 0.05997565 0.068503685 -0.087407865
0.059895203 -0.060033157 0.071004055 -0.04942939 -0.03866792 0.018794132 -0.015152582 0.0433505
-0.0356901 0.04438005 0.032008972 -0.034574736 0.021855533 -0.044879798 0.0015543336 0.029155873
-0.016103216 0.01062581 0.031440094 0.06029173 -0.054597132 0.07719369 0.01027695 0.026529934
-0.06950627 0.027879728 0.066443965 0.04379378 1.830227e-05 -0.049103826 0.00021306286 0.0017184746
-0.059786882 0.015605081 0.062605254 0.0347128 0.02805192 -0.054303505 0.045530427 -0.083713874
-0.07229216 -0.019540101 0.019094156 -0.0059025185 -0.042156983 -0.031998593 -0.024496516 0.08821778
-0.05164266 -0.0009677865 -0.07859478 -0.064756766 0.045834012 0.03127272 0.02758136 -0.0656522
-0.030751752 0.056303848 0.0074846162 -0.042642664 -0.04534848 -0.01956149 -0.060848765 0.011790169
00000000: 4251 053d de86 9abd 1db4 28bd f1c6 8f3d
00000010: 8f99 b33d 7b52 893d 50ab 583d a9b4 5cba
00000020: 9f94 0ebd b463 a1bd ec91 713c 208a 963d
00000030: 7419 87bc 20c7 853d e561 b33d be9f 7e3d
00000040: a237 c7bb e028 5cbd 3a0f 923d 9c7b cabc
00000050: c494 b13d 0569 f13c 339f 803d 8a1a a8bd
00000060: 78fb 67bc c6d7 983c 5684 053d c271 303c
00000070: 976d 763c 8f83 47bb 7e3f 623d 81b2 ebbc
00000080: f783 653d 0255 0bbd 6863 f6bc 3c8a 943c
00000090: 7960 d73c da65 2bbd 7876 91bd 5146 c1bc
000000a0: e575 b4bd c6f3 46bd c133 2abd 9ecd debb
000000b0: 8b17 5dbd 3e34 e23c f01e 5f3d 775d ba3b
000000c0: 3ac1 d53c cde1 faba 4278 903d c397 72bd
000000d0: 90b9 aaba 86fa a0bd 32f0 88bd 20a9 9d3d
000000e0: 67d5 50bd 3a26 243d 0318 5a3d 3f27 a8b9
000000f0: 0e82 85bd 61e7 a6bd de8c 6c3d 25e2 2abd
00000100: 7455 e73c 1724 ef3c 9863 b9bb de5c 9d3d
00000110: 8f21 2cbd 8959 203d 6ba5 9bbd 6c48 44bb
00000120: 53d5 4abc 3874 f63b 6902 86bc bd41 4ebc
00000130: 84a5 973d 1cb3 803b 4f05 9f3d 3e94 dc3c
00000140: d495 1a3d 77cc 633c 800c 3fbd 67d0 1f3d
00000150: a9dc fd3c aa2e 253d 190f 1fbc 307e 913c
00000160: f3cc 743d 671e 2fbd e8cf 3ebd 4408 26bd
00000170: cafd 8c3d d032 8f3d 9fe0 433d 144f 0ebd
00000180: 1815 6bbd f6fc 993c 5870 9bbb 798e 24bd
00000190: 6bb8 b6bc 7106 89bd 929d 213d a7ff 373d
000001a0: 10c4 a1ba 7a96 90bd 50b7 903d a702 2a3d
000001b0: a601 6dbc dda9 78bd d719 663d d034 b2bd
000001c0: 467d a33d 122c fbbc af66 973d 52f1 42bd
000001d0: 4b4e 823c c223 b43d 0836 043d 5cfa 13bb
000001e0: b708 8bbd a928 813d 2deb 83bd c44a a43d
000001f0: 84da 9d3d 362e 343c 00d3 bebb e289 18bd
00000200: 6aec 5b3d 2a01 6d3c a03d 423d e8fe f9bb
00000210: d853 93bd c6aa 813b 7ec6 75bd a6ea 0d3d
00000220: e387 cc3c b9c8 363d 8da0 9ebd f642 c93c
00000230: e275 753d 9489 d23c 070f f4bc d531 56bc
00000240: ca50 97bd 20e2 0e3d 621f 213d 3fd9 d93b
00000250: b8a4 ad3d 8743 983b 31e9 933c 384f 393d
00000260: 7868 47bc 8388 42bc 4371 e5bc 662e f5bc
00000270: 2ca1 21bd 0ee5 cbbc 8269 89bd fd73 ac3d
00000280: 6084 6f3d ba88 b7bc 6f90 77bc a25b 803d
00000290: b1eb c9bc feaf a73d a519 a53d 49e3 513d
000002a0: 9e38 a3bd b488 92bd 0d78 6e3d c8a1 9dbd
000002b0: 31eb 37bd d12d 16bd 17f0 90bd 6c24 2b3d
000002c0: 2e76 5ebd a614 61bd 4d2f e93c a3ab 1e3d
000002d0: 8e8a 16bc e802 bfbc 1c15 85bd a535 afbd
000002e0: 51a5 66bd c9db 6e3d 492c 52bb ddd9 53bd
000002f0: 6a70 4b3d 07a9 753d a94b 8c3d e502 b3bd
00000300: ac54 753d 54e5 75bd 936a 913d 7976 4abd
00000310: 4162 1ebd 27f6 993c 8942 78bc 4b90 313d
00000320: c82f 12bd dbc7 353d d71b 033d 3d9e 0dbd
00000330: 600a b33c e1d3 37bd c8ba cb3a 4cd8 ee3c
00000340: e4ea 83bc e117 2e3c 54c7 003d 76f4 763d
00000350: 3ea1 5fbd ba17 9e3d a760 283c 4e55 d93c
00000360: 4e59 8ebd 0764 e43c c613 883d 1b61 333d
00000370: d387 9937 1821 49bd a069 5f39 703e e13a
00000380: 17e3 74bd 74ac 7f3c 2f37 803d 022f 0e3d
00000390: 24cd e53c 5a6d 5ebd 1d7e 3a3d 2e72 abbd
000003a0: e90d 94bd 9012 a0bc 596b 9c3c ea69 c1bb
000003b0: cdac 2cbd f510 03bd ebac c8bc 86ab b43d
000003c0: 4187 53bd 0db3 7dba 4df6 a0bd 329f 84bd
000003d0: 72bc 3b3d d317 003d 4ef2 e13c a974 86bd
000003e0: 19eb fbbc dd9e 663d 8341 f53b 13aa 2ebd
000003f0: 54bf 39bd 6b3f a0bc 8e3c 79bd 8e2b 413c

73 f4 [1, 512, 128]
0.08671955 -0.08432961 0.07748364 0.043960754 -0.082331404 0.05606847 -0.029300509 0.05599096
0.0025552686 -0.08416355 -0.012609968 0.00023839311 -0.02856649 -0.034778137 0.020261971 0.08734753
0.08505964 -0.08040307 -0.042602424 0.013215291 -0.05867957 -0.08032912 -0.05670241 -0.06850909
0.054919533 0.047751978 0.055140786 0.010802638 0.002393056 -0.016198572 0.020872362 0.084114686
0.04124185 -0.010450206 0.025013838 0.013915751 0.020648163 -0.018442387 0.055276245 0.053023864
-0.02032633 0.014757824 0.043584287 0.046902247 0.036549672 -0.06404308 -0.022874665 -0.04144795
0.006370707 0.06192568 -0.018565917 0.08445428 -0.050127648 0.025379915 -0.065797664 0.08678576
-0.08514133 -0.039664607 0.06937226 -0.0068744984 -0.017534975 0.03260245 0.076180056 -0.0503929
-0.024126869 0.015252196 -0.06682454 -0.055511992 0.006489213 0.072898686 -0.038665548 0.05475061
-0.074147895 -0.0126938615 -0.025773788 -0.033353772 -0.013196146 -0.07880789 0.07527126 -0.033164807
-0.08601441 -0.029291227 0.07962953 -0.050713584 -0.05655596 0.028693216 0.07730423 -0.02494321
-0.045567844 0.016348382 -0.083360985 -0.007259784 0.0043753274 -0.07009226 -0.08165997 -0.0027309365
-0.011847279 0.04151275 -0.029201064 -0.01843208 0.009868158 -0.057931527 -0.06967591 0.07522182
0.016467037 0.07705714 0.04992057 0.046121854 -0.026178714 0.043145232 0.0015801275 0.07531877
-0.04562293 -0.0005625445 -0.04331023 -0.02421583 -0.003869502 -0.08140022 0.05515071 -0.07614376
-0.029840032 0.018632889 -0.035349026 -0.068048775 -0.00638137 -0.06896735 -0.032692626 0.009327561
0.069738925 0.008875684 -0.024348728 -0.015531524 0.02362767 0.057897344 -0.0077119987 -0.08452136
-0.021596087 -0.053179964 0.02174752 -0.07397735 0.007980969 0.065107524 0.013072308 0.040519644
0.03810781 0.035193905 -0.031350963 -0.040944766 0.043577176 -0.026301414 -0.06325106 -0.07107503
-0.08613429 -0.05399053 0.011789021 0.08617527 0.022507818 -0.029940277 0.066851705 -0.008883418
0.059578974 0.027343716 -0.07839174 -0.01625723 -0.031138217 0.0018467379 -0.013218664 -0.039416544
0.082197815 0.06462205 0.00069699297 0.013256048 -0.07825069 0.015981104 0.08715939 -0.040942933
-0.056452014 -0.03124959 -0.075724475 -0.024885627 -0.07107762 -0.02019991 -0.011976374 0.043362416
0.014400113 0.07967425 0.08423539 0.059380494 -0.03308711 0.021605728 -0.073695935 0.058998443
0.06052277 -0.06688171 0.08188083 0.083698235 -0.053492684 0.05044903 0.022035627 -0.08267863
0.057631504 -0.08088957 -0.062942885 0.008783772 -0.047188528 -0.023863988 0.08746219 -0.05980976
-0.030671947 -0.08572652 0.014646493 0.031412657 0.027237 -0.0043153632 -0.06295225 -0.01829641
-0.0029739658 -0.07065077 0.015405358 0.017315432 -0.051083487 0.05459747 0.05369344 0.081191994
0.0373608 0.03840853 0.06756618 0.055291016 -0.07588324 -0.009149712 0.06843117 -0.08547497
-0.052277308 -0.06539258 -0.0824046 0.056071743 0.0734414 -0.032386385 -0.024343092 -0.019460749
-0.027065188 -0.08210478 -0.020360816 -0.013502744 -0.016561804 0.0022341728 -0.00465965 -0.019679522
-0.008357983 0.08171745 0.07487674 -0.021674028 -0.059366647 -0.012341598 0.087342985 -0.011193729
00000000: 059a b13d 01b5 acbd beaf 9e3d 3110 343d
00000010: 5e9d a8bd 0da8 653d 9f07 f0bc c756 653d
00000020: 4b76 273b f05d acbd 0a9a 4ebc 2af9 7939
00000030: 4604 eabc 8573 0ebd 6ffc a53c 43e3 b23d
00000040: c033 ae3d 5daa a4bd e17f 2ebd f384 583c
00000050: fd59 70bd 9883 a4bd c940 68bd 7e4e 8cbd
00000060: 4ef3 603d 9497 433d 4edb 613d 8cfd 303c
00000070: d1d4 1c3b deb2 84bc 84fc aa3c 5244 ac3d
00000080: 37ed 283d 5737 2bbc d2e9 cc3c e4fe 633c
00000090: 5626 a93c 7d14 97bc 5869 623d 8d2f 593d
000000a0: 6783 a6bc cdca 713c 7085 323d 921c 403d
000000b0: 1cb5 153d 0529 83bd a663 bbbc 53c5 29bd
000000c0: 5dc1 d03b c8a5 7d3d 8d17 98bc 5ef6 ac3d
000000d0: a652 4dbd 8ae9 cf3c edc0 86bd bcbc b13d
000000e0: 945e aebd 5b77 22bd 0b13 8e3d 7943 e1bb
000000f0: 82a5 8fbc 268a 053d 4a04 9c3d c968 4ebd
00000100: b6a5 c5bc 59e4 793c 4edb 88bd 8b60 63bd
00000110: 77a3 d43b e84b 953d c45f 1ebd 2d42 603d
00000120: dada 97bd eaf9 4fbc 8d23 d3bc f79d 08bd
00000130: a634 58bc 0866 a1bd d227 9a3d d2d7 07bd
00000140: 5328 b0bd 28f4 efbc cf14 a33d 0cb9 4fbd
00000150: 39a7 67bd 090e eb3c ae51 9e3d b455 ccbc
00000160: 59a5 3abd 0bed 853c 2ab9 aabd 7be3 edbb
00000170: e85e 8f3b 888c 8fbd 583d a7bd 83f9 32bb
00000180: 171b 42bc 4609 2a3d 1237 efbc e0fe 96bc
00000190: 0eae 213c 9c49 6dbd 3eb2 8ebd e60d 9a3d
000001a0: e1e5 863c 22d0 9d3d 8379 4c3d 45ea 3c3d
000001b0: be74 d6bc 0eb9 303d 481c cf3a ba40 9a3d
000001c0: 1cdf 3abd b977 13ba 1166 31bd 4760 c6bc
000001d0: 7997 7dbb 29b5 a6bd b6e5 613d 42f1 9bbd
000001e0: 1573 f4bc 00a4 983c 24ca 10bd 285d 8bbd
000001f0: d01a d1bb c13e 8dbd b4e8 05bd a0d2 183c
00000200: 48d3 8e3d 516b 113c fc76 c7bc ef77 7ebc
00000210: d18e c13c c425 6d3d efb4 fcbb 8919 adbd
00000220: 47ea b0bc 3cd3 59bd db27 b23c 7081 97bd
00000230: 9cc2 023c 1857 853d 3c2d 563c edf7 253d
00000240: ef16 1c3d 7c27 103d de69 00bd b3b5 27bd
00000250: fb7d 323d 1076 d7bc c689 81bd c98f 91bd
00000260: 2d67 b0bd 2d25 5dbd bd26 413c a97c b03d
00000270: 5162 b83c 5045 f5bc 8ce9 883d c18b 11bc
00000280: 1509 743d eeff df3c d98b a0bd e22d 85bc
00000290: 9315 ffbc 3e0e f23a 1893 58bc 3e73 21bd
000002a0: 5457 a83d 9158 843d 68b6 363a e52f 593c
000002b0: e641 a0bd ceea 823c 9f80 b23d c7b3 27bd
000002c0: 3a3a 67bd 24ff ffbc 6f15 9bbd f1dc cbbc
000002d0: 2591 91bd 487a a5bc 8e38 44bc ca9c 313d
000002e0: 74ee 6b3c 412c a33d 9b83 ac3d f638 733d
000002f0: 5986 07bd 7ffe b03c e5ed 96bd 5aa8 713d
00000300: b9e6 773d 47f9 88bd 23b1 a73d fb69 ab3d
00000310: 251b 5bbd a4a3 4e3d 0f84 b43c 6a53 a9bd
00000320: 030f 6c3d 6ea9 a5bd 33e8 80bd cfe9 0f3c
00000330: c248 41bd 697e c3bc 601f b33d 14fb 74bd
00000340: bc43 fbbc 6391 afbd d8f7 6f3c 8faa 003d
00000350: 2120 df3c e467 8dbb 1ced 80bd 5ae2 95bc
00000360: dee6 42bb 5ab1 90bd c166 7c3c 18d9 8d3c
00000370: eb3c 51bd 99a1 5f3d a7ed 5b3d fd47 a63d
00000380: a307 193d 4352 1d3d 2360 8a3d d578 623d
00000390: ac68 9bbd ace8 15bc a425 8c3d 800d afbd
000003a0: bb20 56bd 8cec 85bd bec3 a8bd 7cab 653d
000003b0: 7268 963d 96a7 04bd 2a6b c7bc 266c 9fbc
000003c0: d0b7 ddbc 8d26 a8bd bacb a6bc 9d3a 5dbc
000003d0: 9fac 87bc 336b 123b faaf 98bb f336 a1bc
000003e0: ecef 08bc 7a5b a73d fa58 993d bb8d b1bc
000003f0: 712a 73bd 6a34 4abc e1e0 b23d e765 37bc

74 f4 [1, 1024]
0.08612481 0.04553914 0.08546887 0.03308119 0.01750443 0.036841065 0.07118964 0.008661726
0.046998434 -0.0709093 -0.04934866 -0.052590754 0.06550818 0.0074904957 0.009106301 0.04056395
0.049124975 0.05920333 0.016126512 0.013686588 0.009894826 0.038461402 -0.08811606 -0.040104706
-0.03565033 -0.077723645 -0.0402045 0.0013584982 0.04767489 -0.043987073 0.01645865 -0.05582787
0.035396565 0.08331141 0.035969533 0.028179698 -0.011858858 -0.043293547 0.07324687 0.023263132
0.033271953 -0.014487283 0.08158789 -0.012966277 -0.08213536 0.029766453 -0.06379572 0.07956286
-0.06478011 0.08837047 -0.03673775 -0.023060542 -0.064072646 -0.050141927 -0.015592901 0.072651535
-0.038483705 -0.048709933 0.061571486 0.0770153 0.057292245 -0.037171897 0.06391067 -0.055115316
0.052717425 0.06951133 0.033371244 -0.058456045 -0.042359814 0.008875399 -0.057375673 -0.05755089
0.07469914 -0.039138533 0.00040016323 -0.017122505 0.024247102 0.01872695 0.06788979 -0.014622775
0.017693657 -0.029357808 -0.019890372 0.056997564 0.055358503 0.05481517 -0.016283235 0.0052206037
-0.087357275 0.057828426 0.031999044 0.0019028038 -0.067987956 -0.044495165 0.017831646 -0.06670426
-0.03642265 -0.08568292 -0.013668265 -0.03209491 -0.028642429 0.040234856 -0.053273447 -0.08002108
0.03214152 0.03482534 -0.029509315 -0.049500618 -0.044616476 -0.06505953 -0.0001828541 -0.06916818
-0.012029374 -0.061324548 0.071574114 -0.05058704 -0.08244321 0.04547544 0.08300562 0.066708684
0.011392461 -0.01846897 0.072162956 -0.08513683 -0.014609003 -0.0056556854 -0.063272215 0.015163108
0.009202332 0.005994662 0.06603525 0.023478018 -0.08680911 0.05074292 -0.050251286 0.0040491424
-0.004438453 0.080679886 0.019477775 0.04630886 -0.04750448 -0.058865733 -0.032429904 0.033563558
-0.0040054363 0.08361646 -0.017985873 -0.08104772 -0.049547773 0.08294976 0.043047346 0.082271665
-0.01930744 -0.07994638 -0.025898458 -0.011833887 -0.009328173 0.011135608 0.060400404 0.0031169807
0.08777239 -0.014967842 -0.0440406 -0.038188417 0.0405852 -0.037229184 0.036773145 -0.03363139
0.08455165 0.036965884 0.035181638 0.077587575 -0.06688217 -0.019037489 -0.044572357 0.0814464
0.022637757 0.033759266 0.030212851 0.06472541 0.07078453 0.08638538 0.04223345 -0.02829006
-0.07077612 -0.08349655 -0.07127853 -0.004406716 0.009214692 -0.04296925 -0.034395494 -0.023577252
-0.08369773 -0.037498526 0.058230884 0.044456538 0.038590655 -0.074118614 -0.05585254 -0.08596139
0.004223873 0.060184825 -0.010645293 -0.038386855 -0.06480239 0.06102457 0.07584902 -0.055381715
0.042832136 -0.05637478 0.08675036 0.07072273 0.08104423 0.07290513 -0.05959031 0.042768333
-0.014938707 0.06937017 -0.047624137 0.063527584 0.018542042 0.015874462 0.043216556 0.028412001
-0.060374845 -0.07836873 0.07207316 0.04756334 -0.024534797 -0.03947828 -0.074955806 0.018284777
0.029599847 -0.043778364 -0.032551676 0.0066913706 -0.019302666 0.052864105 -0.0631739 0.012394703
-0.08474673 0.074165106 -0.07727217 0.020602275 -0.060479306 0.019857023 0.006413117 -0.03891431
-0.040710397 -0.08749204 -0.07467051 -0.049796753 -0.03451102 -0.057732943 0.019541807 0.014787707
00000000: 3462 b03d 4087 3a3d 4e0a af3d 2480 073d
00000010: 7365 8f3c a8e6 163d e0cb 913d e9e9 0d3c
00000020: 6e81 403d e538 91bd d221 4abd 6769 57bd
00000030: 2729 863d d572 f53b 9832 153c 6226 263d
00000040: 4537 493d 317f 723d bf1b 843c b63d 603c
00000050: e91d 223c b489 1d3d 3176 b4bd d544 24bd
00000060: 1506 12bd 932d 9fbd 79ad 24bd a30f b23a
00000070: bf46 433d ca2b 34bd 4ad4 863c c4ab 64bd
00000080: fdfb 103d 2c9f aa3d ca54 133d 1cd9 e63c
00000090: a84b 42bc 9354 31bd 7402 963d 5392 be3c
000000a0: 2c48 083d 125c 6dbc 8d17 a73d 8270 54bc
000000b0: 9536 a8bd c7d8 f33c 55a7 82bd daf1 a23d
000000c0: 6fab 84bd 94fb b43d 537a 16bd 76e9 bcbc
000000d0: 8538 83bd 9f61 4dbd 5e79 7fbc 54ca 943d
000000e0: 17a1 1dbd 1184 47bd 6232 7c3d 33ba 9d3d
000000f0: 46ab 6a3d 8f41 18bd 99e3 823d 99c0 61bd
00000100: 3aee 573d f55b 8e3d 49b0 083d 9b6f 6fbd
00000110: 7c81 2dbd 1f6a 113c c102 6bbd 7bba 6bbd
00000120: ddfb 983d ba4f 20bd 00cd d139 7f44 8cbc
00000130: dca1 c63c 4369 993c cd09 8b3d 5d94 6fbc
00000140: 4af2 903c c97f f0bc 22f1 a2bc 4776 693d
00000150: 99bf 623d df85 603d 6b64 85bc 9911 ab3b
00000160: 5fe8 b2bd 80dd 6c3d 6e11 033d 8067 f93a
00000170: 453d 8bbd 9040 36bd ac13 923c 3e9c 88bd
00000180: eb2f 15bd 877a afbd dcf0 5fbc f475 03bd
00000190: 87a3 eabc 4ecd 243d 4235 5abd 18e2 a3bd
000001a0: d4a6 033d 04a5 0e3d 85bd f1bc 29c1 4abd
000001b0: c4bf 36bd ee3d 85bd 86bc 3fb9 0ca8 8dbd
000001c0: da16 45bc 732f 7bbd 7395 923d 5b34 4fbd
000001d0: fcd7 a8bd 7444 3a3d dafe a93d 909e 883d
000001e0: 72a7 3a3c 3d4c 97bc 2cca 933d 385c aebd
000001f0: 9a5a 6fbc 5453 b9bb dd94 81bd af6e 783c
00000200: 61c5 163c df6e c43b 7d3d 873d f954 c03c
00000210: fac8 b1bd cfd7 4f3d 4bd4 4dbd abae 843b
00000220: 7170 91bb 7f3b a53d db8f 9f3c 5cae 3d3d
00000230: 0f94 42bd 321d 71bd 38d5 04bd f179 093d
00000240: 0940 83bb 1b3f ab3d 1c57 93bc 59fc a5bd
00000250: 9bf2 4abd 90e1 a93d 6a52 303d 0c7e a83d
00000260: a32a 9ebc edba a3bd 0129 d4bc ebe2 41bc
00000270: 31d5 18bc 2072 363c 6a66 773d 4246 4c3b
00000280: 03c2 b33d ae3b 75bc eb63 34bd 756b 1cbd
00000290: ab3c 263d a17d 18bd 709f 163d 12c1 09bd
000002a0: 6a29 ad3d 8a69 173d 9f1a 103d 3ce6 9e3d
000002b0: 85f9 88bd 82f4 9bbc 8191 36bd 5fcd a63d
000002c0: d172 b93c 2847 0a3d f180 f73c c18e 843d
000002d0: 7bf7 903d d1ea b03d fbfc 2c3d 8ec0 e7bc
000002e0: 12f3 90bd 3d00 abbd 7afa 91bd 3766 90bb
000002f0: 38f9 163c 8600 30bd 4ae2 0cbd 1525 c1bc
00000300: b769 abbd 0e98 19bd 8283 6e3d 0f18 363d
00000310: 3c11 1e3d 80cb 97bd a2c5 64bd 860c b0bd
00000320: 6a68 8a3b 5d84 763d 9869 2ebc 893b 1dbd
00000330: 1eb7 84bd e6f4 793d bb56 9b3d f0d7 62bd
00000340: c070 2f3d 3ee9 66bd 2caa b13d 14d7 903d
00000350: 84fa a53d 494f 953d f814 74bd d92d 2f3d
00000360: 7bc1 74bc f311 8e3d 8711 43bd c01a 823d
00000370: 7be5 973c 290b 823c d803 313d 49c0 e83c
00000380: 9d4b 77bd c97f a0bd 189b 933d c7d1 423d
00000390: 33fd c8bc fab3 21bd 6e82 99bd f5c9 953c
000003a0: 617b f23c f150 33bd e854 05bd 4943 db3b
000003b0: a020 9ebc 0888 583d 5161 81bd 2713 4b3c
000003c0: b28f adbd e0e3 973d df40 9ebd 1ac6 a83c
000003d0: 26b9 77bd 32ab a23c 2025 d23b 9d64 1fbd
000003e0: f2bf 26bd 072f b3bd daec 98bd aef7 4bbd
000003f0: 6d5b 0dbd 6179 6cbd 2416 a03c 2348 723c

77 f4 [128, 5]
0.053910285 0.07440415 0.0052569974 -0.05006525 -0.00892078 -0.014239123 -0.007289782 0.08268583
-0.014809591 0.022444734 -0.08506845 0.02008919 0.06650748 0.07038589 -0.029160878 0.07804048
0.03618332 -0.08178619 -0.015306281 0.028606836 0.051142417 0.04468571 -0.020485729 0.039697368
0.021590756 -0.03903699 -0.07191941 0.048532873 0.024862953 -0.02394137 -0.033785112 0.03997498
0.037383325 0.08537648 -0.01849566 -0.073226474 0.013753339 0.07269172 -0.04916192 -0.038483664
0.052698165 0.049452856 -0.04055515 0.023056338 0.0019522314 0.018967325 -0.05104372 0.06807859
-0.06286349 0.015814625 -0.046053756 -0.05055783 0.039445035 0.027781537 -0.019914722 0.07716287
0.021398628 -0.06279431 -0.029338242 0.049946513 -0.07012891 0.03953992 0.07401158 0.06892456
-0.010195312 -0.039032154 0.06290801 0.08011989 0.021697491 0.08447251 -0.023948682 0.08795302
-0.007785566 -0.06418881 -0.07457347 0.00546986 -0.050044842 -0.07795867 -0.0057062935 -0.01850706
0.04272276 -0.045317154 0.054060087 0.008245273 -0.07984933 0.076903015 0.0840038 0.0009253446
0.06084892 0.08822039 -0.037486933 -0.08108192 0.085853696 -0.030804045 -0.076936945 0.004100172
0.0630058 0.032918807 0.04904749 -0.08319378 -0.017307961 0.0058510993 -0.043306172 0.032166243
0.0035068917 0.008640399 0.06532027 0.031158438 0.0094835255 0.030300222 0.06472674 -0.0021501847
-0.0024065112 0.048918847 -0.08682967 0.042626143 0.044860262 0.02583134 -0.040454462 -0.053315036
-0.036176883 0.00654137 0.06962998 -0.062804945 -0.044018324 0.07758391 0.0487947 -0.07081927
-0.043282643 0.061925583 -0.07364002 0.07828435 -0.083738096 -0.024479195 -0.012870446 -0.06691967
0.04472594 -0.011382494 -0.06580967 -0.011657112 -0.041338895 -0.019686477 0.019230984 0.052032877
0.06273481 0.06614858 -0.022511031 -0.023001473 0.083616756 0.07216004 -0.024474 -0.08084378
0.072135076 -0.06459916 0.02599351 0.014934029 -0.015469569 -0.039582003 0.05742883 -0.07456845
-0.0018990737 0.023164203 0.0095259985 0.02921218 -0.04081873 -0.05944076 0.08138715 -0.027161146
-0.0870805 -0.08344073 -0.04218181 0.015362821 -0.013778784 -0.053303804 0.063290656 -0.0038984464
0.04036197 0.009031953 0.013343523 -0.079324804 0.038600612 0.0334896 -0.03273356 -0.008535285
0.0006708619 -0.004227118 0.04859519 -0.042579915 -0.007829294 0.031324085 -0.07139907 0.051969822
0.041576106 -0.055037484 0.027865399 -0.006099608 0.022005375 -0.043555807 0.014655207 -0.07761487
0.0625454 0.0157368 0.06786613 -0.08224165 0.078089714 0.07544411 0.07566799 -0.066118844
0.028794779 -0.0383028 0.078857 -0.06940547 -0.057023875 0.06944225 0.048790645 -0.0217155
0.054660436 0.057191387 -0.010803059 0.05048242 0.0669835 0.031572647 -0.056348786 0.08416171
-0.05543223 0.074573085 -0.01579783 -0.0058996524 -0.051136993 0.06355399 0.027712617 0.06471032
-0.024071878 -0.03671276 0.027395925 -0.015665678 -0.063272975 0.05921119 0.047005642 -0.08758227
-0.07688806 0.08701397 -0.06576256 -0.03188897 -0.033394895 0.048206944 0.008493486 -0.038828954
0.01671604 -0.06301778 -0.06933742 0.06794825 0.023650736 0.048847858 -0.07584933 -0.0478602
00000000: 08d1 5c3d 3461 983d e442 ac3b 3811 4dbd
00000010: 7728 12bc 364b 69bc 20df eebb 3057 a93d
00000020: eda3 72bc 05de b73c 5e38 aebd 1692 a43c
00000030: 1335 883d 7a26 903d cbe2 eebc b0d3 9f3d
00000040: f634 143d 857f a7bd 32c7 7abc e258 ea3c
00000050: b67a 513d 5d08 373d b0d1 a7bc b599 223d
00000060: 19df b03c 40e5 1fbd 7c4a 93bd 68ca 463d
00000070: 64ad cb3c b120 c4bc 4262 0abd cebc 233d
00000080: 421f 193d ddd9 ae3d 3684 97bc c3f7 95bd
00000090: af55 613c 66df 943d 025e 49bd 0ca1 1dbd
000000a0: 08da 573d 148f 4a3d 281d 26bd a5e0 bc3c
000000b0: 04e2 ff3a 5d61 9b3c 3813 51bd ca6c 8b3d
000000c0: 93be 80bd ac8d 813c dda2 3cbd ba15 4fbd
000000d0: 1e91 213d 1b96 e33c 3324 a3bc 9107 9e3d
000000e0: 2d4c af3c 4e9a 80bd c156 f0bc b794 4c3d
000000f0: bf9f 8fbd 9cf4 213d 6293 973d 5228 8d3d
00000100: 3d0a 27bc 2ee0 1fbd ead5 803d e615 a43d
00000110: f0be b13c ecff ac3d 0730 c4bc b720 b43d
00000120: 101e ffbb 6c75 83bd fab9 98bd 833c b33b
00000130: d2fb 4cbd cca8 9fbd dcfb babb 1e9c 97bc
00000140: 10fe 2e3d 7b9e 39bd 1c6e 5d3d 2e17 073c
00000150: 0c88 a3bd 547f 9d3d 2f0a ac3d d392 723a
00000160: b83c 793d e4ac b43d e68b 19bd 470e a6bd
00000170: 10d4 af3d c458 fcbc 1e91 9dbd bc5a 863b
00000180: 2f09 813d dfd5 063d 05e6 483d 8061 aabd
00000190: 6dc9 8dbc 94ba bf3b d061 31bd c0c0 033d
000001a0: e1d3 653b 7690 0d3c a2c6 853d fb3f ff3c
000001b0: ca60 1b3c 2c38 f83c 748f 843d 1dea 0cbb
000001c0: 8fb6 1dbb 215f 483d c1d3 b1bd c098 2e3d
000001d0: 65bf 373d 3f9c d33c 94b3 25bd de60 5abd
000001e0: 362e 14bd fd58 d63b 2a9a 8e3d e19f 80bd
000001f0: 8f4c 34bd 50e4 9e3d f4dc 473d b209 91bd
00000200: 2449 31bd aea5 7d3d 94d0 96bd 8c53 a03d
00000210: e17e abbd 9888 c8bc 90de 52bc 2e0d 89bd
00000220: 8c32 373d a47d 3abc 38c7 86bd 79fd 3ebc
00000230: f952 29bd 8945 a1bc 4c8a 9d3c 6d20 553d
00000240: 1c7b 803d e878 873d 0e69 b8bc 966d bcbc
00000250: 433f ab3d a5c8 933d b37d c8bc 6c91 a5bd
00000260: 8ebb 933d 904c 84bd 57f0 d43c dcad 743c
00000270: 1374 7dbc bd20 22bd 7e3a 6b3d 58b7 98bd
00000280: 57ea f8ba dbc2 bd3c ef12 1c3c 624e ef3c
00000290: 8a31 27bd 2878 73bd 4eae a63d 0d81 debc
000002a0: 4357 b2bd f9e2 aabd d5c6 2cbd 57b4 7b3c
000002b0: 69c0 61bc 1755 5abd 889e 813d 147d 7fbb
000002c0: 9852 253d c2fa 133c cb9e 5a3c 0b75 a2bd
000002d0: ad1b 1e3d 642c 093d a013 06bd 94d7 0bbc
000002e0: c8dc 2f3a a383 8abb c00b 473d 4768 2ebd
000002f0: 7046 00bc af4d 003d ad39 92bd 4fde 543d
00000300: b54b 2a3d fc6e 61bd fa45 e43c 38df c7bb
00000310: 9e44 b43c 9367 32bd 651c 703c 8cf4 9ebd
00000320: cd17 803d 76ea 803c 66fd 8a3d 4f6e a8bd
00000330: 80ed 9f3d 7182 9a3d d2f7 9a3d 5169 87bd
00000340: 07e3 eb3c 66e3 1cbd c77f a13d 7424 8ebd
00000350: de91 69bd bd37 8e3d b3d8 473d b4e4 b1bc
00000360: 9fe3 5f3d 8441 6a3d 50ff 30bc a7c6 4e3d
00000370: a52e 893d 5252 013d fccd 66bd fa5c ac3d
00000380: e80c 63bd c6b9 983d 736a 81bc df51 c1bb
00000390: 0675 51bd 9828 823d 9205 e33c d886 843d
000003a0: 6332 c5bc 1e60 16bd 6b6d e03c 4f55 80bc
000003b0: 4395 81bd 6f87 723d fd88 403d 555e b3bd
000003c0: 7d77 9dbd 6134 b23d 85ae 86bd 029e 02bd
000003d0: 16c9 08bd a574 453d 4328 0b3c 1c0b 1fbd
000003e0: 14f0 883c 770f 81bd c700 8ebd 7428 8b3d
000003f0: 30bf c13c b114 483d e556 9bbd 0f09 44bd
